data.pth (torch, 6058 bytes, 6 tensors)

l1.weight f4 [8, 48]
0	0xbef195e8	-0.47184682
1	0xbee216c2	-0.44157988
2	0xbe62c2fc	-0.22144693
3	0x3f44e92d	0.769183
4	0xbe6dee91	-0.23235537
5	0x3f8ff37b	1.1246179
6	0xbddb68cc	-0.10713348
7	0x3f9c402b	1.2207083
8	0x3f2f2a62	0.68424046
9	0xbd064690	-0.032782137
10	0x3d086811	0.03330237
11	0x3e9ed03b	0.31018242
12	0x3f7449ad	0.9542492
13	0xbd2592d8	-0.040423244
14	0xbfa05fcd	-1.2529236
15	0x3f2a5ffa	0.665527
16	0x3d55cc92	0.052197047
17	0x3f2db0c5	0.67847854
18	0x3e1f742e	0.15571663
19	0x3f73ce5c	0.95236754
20	0xbea0d41e	-0.31411833
21	0x3f80f7ed	1.0075661
22	0x3f88874a	1.0666287
23	0x3f73dbf3	0.9525749
24	0xbf8bc1a3	-1.0918468
25	0x3e1b668a	0.15175834
26	0xbe50a5d0	-0.20375752
27	0xbea2b535	-0.31778875
28	0xbf7f46ce	-0.99717414
29	0x3e92ea62	0.28694445
30	0x3b12c4b3	0.0022395074
31	0xbe3f6054	-0.1868909
32	0x3f35c40b	0.7100226
33	0x3ed660d4	0.4187075
34	0x3ea3deb0	0.32005835
35	0xbe1dc7b1	-0.15408207
36	0xbe68ad56	-0.22722372
37	0xbf97bbb9	-1.1854163
38	0xbecc8e5a	-0.39952356
39	0x3f1ebb79	0.6200481
40	0x3fd50015	1.664065
41	0x3f587ce2	0.84565556
42	0xbf953303	-1.1656193
43	0x3f96684b	1.1750578
44	0x3e8a36a1	0.26994804
45	0x3e987f56	0.2978465
46	0xbf7bec2e	-0.98407257
47	0xbd780435	-0.060550887
48	0xbe7e3ede	-0.2482867
49	0x3ee989e4	0.45613015
50	0x3ec929b8	0.3928964
51	0x3e1aab97	0.15104519
52	0xbee49ec7	-0.44652387
53	0xbfc8f94a	-1.5701077
54	0x3f24c522	0.643633
55	0xbe525c8f	-0.20543121
56	0x39d1bc7c	0.00040004018
57	0x3f2bab9b	0.67058724
58	0xbeea3489	-0.45743206
59	0x3f80a289	1.0049602
60	0x3fcfa6f6	1.6222827
61	0x3f2a577e	0.6653975
62	0x3faf87cb	1.3713316
63	0xbd09f3b8	-0.033679694
64	0x3f208bfe	0.6271361
65	0xbce47efb	-0.02789258
66	0xbd319a9a	-0.04336033
67	0x3dc649aa	0.09682019
68	0xbe541b2e	-0.20713493
69	0x3dbfaaae	0.093587264
70	0x3e4b265a	0.19838849
71	0x3cc25271	0.023720952
72	0xbed48750	-0.41509485
73	0x3e099f7c	0.13439745
74	0xbf178d6c	-0.5920017
75	0xbead1545	-0.3380529
76	0xbf683f9d	-0.90722066
77	0x3f0e6344	0.5562022
78	0xbe641961	-0.22275306
79	0x3e35c9b3	0.17752723
80	0xbd4ef41c	-0.05052577
81	0x3e3b4a3e	0.1829004
82	0x3f1826d8	0.5943427
83	0xbf1f6776	-0.62267244
84	0x3e8e04b4	0.27737963
85	0xbf6b15bd	-0.91830045
86	0xbe8b22b5	-0.27174917
87	0x3e032bc1	0.1280966
88	0xbfbef0a2	-1.4917185
89	0xbf7a15be	-0.97689426
90	0x3f13b996	0.57705057
91	0x3fa6a9ee	1.3020608
92	0x3e441f83	0.19152646
93	0x3d17a6a8	0.03702417
94	0x3fb37d33	1.4022583
95	0xbd12d6db	-0.035849433
96	0x3f8900ae	1.0703332
97	0xbf162090	-0.58643436
98	0xbe841b77	-0.25802204
99	0x3ee6f05f	0.45105264
100	0x3f479f33	0.77977294
101	0x3da6f005	0.08151249
102	0x3ed29604	0.41130078
103	0x3f6b0af8	0.9181361
104	0x3ea9958b	0.33121905
105	0xbead1ebd	-0.33812514
106	0x3f4642fd	0.77445966
107	0x3f9d3beb	1.228391
108	0xbf9fa506	-1.2472236
109	0xbeac99a9	-0.33710983
110	0xbf7433a5	-0.95391303
111	0x3e9e295b	0.30890927
112	0x3e6b3fd6	0.2297357
113	0x3f14236c	0.5786655
114	0x3f25ca53	0.6476185
115	0x3ef3ac42	0.4759236
116	0x3f3b02a2	0.7305089
117	0x3f1af773	0.6053383
118	0x3f0dfb6c	0.55461764
119	0x3f41cd23	0.7570364
120	0x3fb9aedb	1.4506487
121	0xbd312e9e	-0.04325735
122	0x3f69ebce	0.91375434
123	0x3f5f3fd7	0.87206787
124	0x3e633a24	0.22190148
125	0x3debf0df	0.11520552
126	0x3f17f0dd	0.59351903
127	0xbec86489	-0.39139202
128	0x3f054a06	0.52066076
129	0x3ebc2ca1	0.367528
130	0xbcdff783	-0.027339702
131	0x3f4c5979	0.79824024
132	0xbe85f20a	-0.26161224
133	0x3fc946f2	1.5724776
134	0x3f2598cd	0.6468628
135	0x3f26d8ec	0.65174747
136	0x3fc3e524	1.5304303
137	0x3fbabf7b	1.4589685
138	0xbf51bd10	-0.8192911
139	0xbf66fd68	-0.9023042
140	0x3ed03da4	0.40672028
141	0x3f2c27f7	0.6724848
142	0xbf1a03a2	-0.60161793
143	0x3f3d8806	0.7403568
144	0x3f4bbdf3	0.79586715
145	0x3db2e10c	0.087343305
146	0xbe1e9410	-0.15486169
147	0xbe6ea37c	-0.23304552
148	0x3eb45c6f	0.3522677
149	0xbf991adb	-1.1961321
150	0x3f8ccd2f	1.1000117
151	0x3ea5af60	0.32360363
152	0xbe765246	-0.24054822
153	0x3e90422d	0.28175488
154	0x3e41769b	0.188929
155	0x3fbe7e5b	1.4882311
156	0xbfba1ac6	-1.4539421
157	0x3e910fd5	0.2833239
158	0xbfa35243	-1.2759479
159	0xbea5bd04	-0.3237077
160	0x3fae1d0d	1.3602616
161	0x3e9b5f81	0.303463
162	0x3e5770ac	0.21039075
163	0xbf3191f9	-0.6936336
164	0x3f41bf39	0.7568241
165	0xbf176fd8	-0.59155035
166	0xbef0134b	-0.4688972
167	0x3e817928	0.25287747
168	0x4011eb39	2.2799819
169	0x3e29c8e1	0.16580535
170	0x3eda4ea1	0.42638114
171	0x3ef1a44d	0.47195664
172	0xbec47cb9	-0.38376406
173	0x3f0686e2	0.52549565
174	0x3ef4d9c4	0.47822392
175	0x3c3acd6f	0.011401518
176	0x3ea84cc5	0.3287107
177	0x3e6ecf76	0.23321328
178	0x3f1455b9	0.579433
179	0x3dfa815c	0.122317046
180	0x3da6c08e	0.08142196
181	0x3fc2af8a	1.520982
182	0x3f3d082d	0.738406
183	0xbe30c497	-0.17262493
184	0xbfa4e7fe	-1.2883298
185	0x3fa9df19	1.3271209
186	0x3d8a546c	0.067543834
187	0xbd19710e	-0.037461333
188	0x3e753367	0.2394539
189	0x3e95dc36	0.2926957
190	0x3fadfe67	1.3593262
191	0x3f6cb7bf	0.92467874
192	0x3f59c798	0.8507018
193	0x3f48d251	0.7844592
194	0x3cde5435	0.027139762
195	0x3f355698	0.70835257
196	0x3f023791	0.5086604
197	0xbfa592fb	-1.293548
198	0xbf5dbb11	-0.86613566
199	0xbf0a89a6	-0.54116285
200	0x3f71cbdb	0.94451684
201	0x3fa20bb3	1.265982
202	0x3f32e666	0.6988281
203	0x3fcd58cf	1.6042727
204	0x3ddf7b82	0.10912229
205	0x3fa45ee2	1.2841456
206	0x400b827f	2.1798398
207	0x3f34d79b	0.7064149
208	0xbf5d433b	-0.8643071
209	0xbcfe9f6b	-0.031081876
210	0x3f0a63a4	0.5405829
211	0x3f5bc31f	0.85844606
212	0x3f564bb0	0.8370924
213	0x3f8f0487	1.1173257
214	0x3f74098f	0.95327085
215	0xbdb93131	-0.09042586
216	0xbfa31f03	-1.2743839
217	0x3e0f5b7a	0.1399974
218	0x3f462dee	0.77413833
219	0x3f116e1d	0.56808645
220	0x3ee3c548	0.4448645
221	0xbf2c5d0d	-0.67329484
222	0x3eea2728	0.45733
223	0x3ea75de9	0.32688835
224	0xbe0be470	-0.1366136
225	0x3ecbcd43	0.3980504
226	0xbf0ae597	-0.54256576
227	0x3ec49b33	0.38399658
228	0x3ea74e5a	0.32676965
229	0x3fcad40e	1.5845964
230	0x3f2a6498	0.66559744
231	0x3f59fff2	0.85156167
232	0x3f959a62	1.1687739
233	0xbe82aa33	-0.25520477
234	0x3eae3e4b	0.340319
235	0xbf0a1238	-0.5393405
236	0x3eda9471	0.42691377
237	0x3f1bf4dc	0.609205
238	0x3f12e525	0.57380897
239	0x3f097385	0.53691894
240	0x3e38621b	0.18006174
241	0x3f0fa555	0.5611165
242	0x3eb5df90	0.35522127
243	0xbd6f0df9	-0.058362935
244	0x3f21dedc	0.6323068
245	0x3f8450bb	1.0337137
246	0xbf6372c3	-0.8884699
247	0xbcc6ab86	-0.02425171
248	0xbdfab8a6	-0.1224225
249	0x3f97793b	1.1833872
250	0x3fa9ea1c	1.327457
251	0xbf6656a4	-0.89975953
252	0x3fc39c4e	1.5282075
253	0x3f95f586	1.1715553
254	0x3fc4de87	1.538041
255	0xbe022b28	-0.12711775

l1.bias f4 [8]
0	0x3f97bd0d	1.1854569
1	0x3f6f1f63	0.9340727
2	0x3f921e50	1.1415501
3	0x3f91fd36	1.1405399
4	0x3fb28133	1.3945678
5	0x3f637523	0.8885061
6	0x3f915c54	1.1356301
7	0x3f6d27e1	0.92638975

l2.weight f4 [8, 8]
0	0xbe9f4913	-0.3111044
1	0xbff26975	-1.8938433
2	0x3fa0889b	1.2541689
3	0x3f7ed73e	0.99547184
4	0xbf3cb79f	-0.73717684
5	0x3eb7a515	0.35868135
6	0x3f560784	0.8360522
7	0x3f97ae2f	1.1850032
8	0xbe27045c	-0.16310257
9	0x3fafc1cb	1.3731016
10	0xbf8fb791	-1.1227895
11	0xbf10e4cc	-0.56599116
12	0x3f57859b	0.8418824
13	0x3f10da3f	0.5658302
14	0x3e68a0cb	0.22717588
15	0x3feb0e9d	1.8363835
16	0x3f9b39e9	1.2127048
17	0x3ef1a793	0.4719816
18	0x40050e4d	2.0789979
19	0x40206601	2.5062258
20	0xbf47d814	-0.78064084
21	0xc0213963	-2.5191276
22	0x3f17e32c	0.5933101
23	0x3f75b0dd	0.95972997
24	0xbff4efba	-1.9135659
25	0x3ec4c59d	0.38432017
26	0x3f2a0a0d	0.66421586
27	0x3fceb2ad	1.6148278
28	0x4012e67f	2.2953184
29	0xbe850305	-0.25978866
30	0x3f19bbc5	0.6005214
31	0x3f89d798	1.0768919
32	0x3ff08ea0	1.8793526
33	0x3f326c61	0.69696623
34	0x3f853ea9	1.0409747
35	0xbf0b3b3e	-0.5438727
36	0x4008c8ce	2.1372561
37	0x3ff6709b	1.9253114
38	0x3f993679	1.1969749
39	0xc03191ed	-2.7745316
40	0x3cb19fa0	0.02168256
41	0xbead87b3	-0.33892593
42	0x3e8a4ad7	0.27010223
43	0xbd8bf508	-0.068338454
44	0xbe84ad54	-0.2591349
45	0x3db50570	0.08838928
46	0xbea93091	-0.33044866
47	0xbeae9fca	-0.34106284
48	0x3fdbbed7	1.7167615
49	0xbff802a1	-1.9375802
50	0x3fb39e3e	1.4032667
51	0xbf809f44	-1.0048604
52	0x3eefbc7d	0.46823493
53	0x3ec22c12	0.37924248
54	0x40355298	2.8331661
55	0x3f37c5a0	0.71785927
56	0x3d32b35e	0.04362809
57	0x3cde98af	0.027172415
58	0x3e1fdcf7	0.15611635
59	0xbecf6e23	-0.40513715
60	0xbe87cb27	-0.2652218
61	0x3de56555	0.11200968
62	0xbd94ff02	-0.072752014
63	0xbe1d24e1	-0.153461

l2.bias f4 [8]
0	0xbefbb811	-0.4916387
1	0x3c86e354	0.01646582
2	0x3f506664	0.81406236
3	0x3ef9021a	0.48634416
4	0x3f704597	0.93856186
5	0xbcaf9900	-0.02143526
6	0xbce2ba7c	-0.027676813
7	0xbe8e10ec	-0.27747285

l3.weight f4 [24, 8]
0	0xbe95befa	-0.29247266
1	0xbeb6db47	-0.3571417
2	0xc00ca7fa	-2.1977525
3	0xbf741e21	-0.95358473
4	0xbd4048b6	-0.046944343
5	0x3cb3e1d0	0.021958262
6	0x3f22d88e	0.63611686
7	0xbe62c7e2	-0.22146562
8	0x3e724244	0.23658091
9	0xbf7a0097	-0.9765715
10	0x3cf7b887	0.030239357
11	0xc02ec946	-2.7310348
12	0xbeb71bf6	-0.3576352
13	0xbc96c030	-0.018402189
14	0x3eec8075	0.46191755
15	0x3e4b3ace	0.19846651
16	0xbff1e5b8	-1.889823
17	0xbf8decad	-1.1087853
18	0xbe91c728	-0.28472257
19	0x3ea66791	0.3250089
20	0x3f0e2421	0.5552388
21	0xbdf753d8	-0.12076539
22	0xbfb1ad42	-1.3880999
23	0x3ddd59aa	0.10808118
24	0xbf96c429	-1.1778613
25	0xc026d699	-2.606848
26	0x3f0228c1	0.50843436
27	0xbeaa427c	-0.3325385
28	0xbc28bdf2	-0.010299193
29	0xbdf63e38	-0.12023586
30	0xbe67b83a	-0.2262887
31	0x3d93419f	0.071902506
32	0xbf04e5a4	-0.51912904
33	0x3ecfbf94	0.4057585
34	0xbfd03360	-1.6265678
35	0xbfc43ce6	-1.5331085
36	0x3fa517f7	1.2897938
37	0xbe84633f	-0.2585697
38	0xc032e528	-2.7952366
39	0xbda877a2	-0.08225943
40	0xc0378925	-2.8677456
41	0x3d61a952	0.055093117
42	0xbfcab5d6	-1.5836742
43	0xc02d5142	-2.7080846
44	0x3f5c5793	0.8607113
45	0x3e8316a9	0.25603226
46	0x3dc60f7a	0.09670921
47	0xbebd92d3	-0.3702608
48	0xbf27f589	-0.6560903
49	0x3e547f3a	0.20751658
50	0xc00df129	-2.2178442
51	0x3e7e93c1	0.24861051
52	0x3f13bd62	0.5771085
53	0xbe38c31d	-0.1804318
54	0xbff15c6c	-1.885633
55	0xbe996035	-0.29956213
56	0xc03ec625	-2.9808438
57	0xbd6c138c	-0.05763583
58	0xc0089c82	-2.1345525
59	0x3dfadc02	0.122489944
60	0x3cdfaf00	0.027305126
61	0x3e4e837e	0.20167348
62	0x3eb11278	0.34584403
63	0xbec5e86c	-0.38653886
64	0xbfd26ced	-1.6439492
65	0xbfe3588a	-1.7761395
66	0x3f9becc0	1.2181625
67	0x3e606b0f	0.2191584
68	0xbf108c04	-0.56463647
69	0xbe3fcb43	-0.18729882
70	0xc002ba8d	-2.0426362
71	0x3e49c9ea	0.1970593
72	0xc071144b	-3.7668636
73	0xbfdd1546	-1.7272117
74	0xbea79e67	-0.3273804
75	0xbf0e8c39	-0.5568271
76	0x3eddad0a	0.4329608
77	0x3c113060	0.008861631
78	0x3eeaf6f7	0.45891544
79	0x3e61d29d	0.22052999
80	0x3f2e0e24	0.67990327
81	0xbed8cbd1	-0.42343
82	0x3f16c8e8	0.5890031
83	0x3eef3a1a	0.46724015
84	0xc0050d90	-2.0789528
85	0x3c43b3a0	0.011944681
86	0xc0335450	-2.802021
87	0x3df99c09	0.121879645
88	0x3f2df29f	0.67948335
89	0xbfd3e2a7	-1.6553544
90	0x3f32422c	0.6963222
91	0xbebcba63	-0.36860952
92	0xbff94088	-1.9472818
93	0xbe251ebb	-0.16125004
94	0xbea8a978	-0.32941794
95	0x3de6b0a7	0.112641625
96	0xbe120b34	-0.14262086
97	0xc0111894	-2.2671251
98	0xbf9073d3	-1.1285347
99	0xbd9b3b94	-0.07579723
100	0x3e79d6e0	0.24398375
101	0xbdc447a4	-0.09583977
102	0xbc28e6cd	-0.010308933
103	0xbecaafbf	-0.3958721
104	0xbe5e658e	-0.21718428
105	0x3ee7b635	0.452562
106	0xbf24a3ec	-0.64312625
107	0x3f02ada8	0.5104623
108	0xbfccd0ee	-1.600126
109	0xbd3d9d60	-0.046292663
110	0xbe523f90	-0.2053206
111	0xbe86d4d7	-0.2633426
112	0x3f15574f	0.5833635
113	0xbedc3fe4	-0.43017495
114	0xbd390015	-0.045166094
115	0xbeb98c62	-0.36239916
116	0xbff1c9b7	-1.8889683
117	0x3ea9839f	0.3310823
118	0x3ee0b00a	0.43884307
119	0xbec5e6c5	-0.38652626
120	0x3e0efb7c	0.13963121
121	0xbfb9fea8	-1.453084
122	0xbeb266dd	-0.34844103
123	0x3eca0d36	0.39463204
124	0xbf298c17	-0.66229385
125	0x3e32a942	0.17447379
126	0xbd8e8102	-0.069582
127	0xbe8ebfc0	-0.2788067
128	0xc00c1ef6	-2.1893897
129	0xbff83425	-1.9390913
130	0xc040922d	-3.0089219
131	0xbf39fee9	-0.7265459
132	0x3f311c16	0.6918348
133	0x3e378812	0.17923
134	0x3f2d372b	0.67662305
135	0x3e2d3ca7	0.16917668
136	0xbf31dcab	-0.6947734
137	0xc048b69b	-3.1361454
138	0xbf06b8ce	-0.5262574
139	0xc011bdf6	-2.2772193
140	0x3edeaa29	0.43489197
141	0x3e1add1e	0.15123412
142	0x3f0f04a9	0.55866486
143	0xbe6725b2	-0.22572973
144	0xbf65b0f4	-0.89723134
145	0x3f4b10de	0.7932261
146	0xbffc2b49	-1.970071
147	0x3f762ed8	0.9616523
148	0xbf7e232b	-0.9927241
149	0x3e940917	0.28913185
150	0xc01a6baa	-2.4128213
151	0x3dd3899d	0.10328982
152	0x3f21b758	0.63170385
153	0xc07c6d42	-3.9441686
154	0x3e65ecab	0.22453563
155	0xbf79a98a	-0.9752432
156	0xbf06d24c	-0.5266464
157	0x3e172066	0.14758453
158	0x3e4a3563	0.19746928
159	0xbe5d579f	-0.21615456
160	0xc012ff75	-2.2968419
161	0x3f1fa276	0.6235727
162	0x3ebde3dc	0.37087905
163	0xbd90e366	-0.07074623
164	0xbebfca27	-0.37458917
165	0xbe8f0ce5	-0.27939525
166	0xc01f62d4	-2.490407
167	0xbebcadaa	-0.36851245
168	0xc0081a48	-2.126604
169	0x3b9b3045	0.004735979
170	0x3f4c60ad	0.79835016
171	0xbfd02fdb	-1.6264604
172	0xbf522186	-0.820824
173	0xbe73516c	-0.23761529
174	0x3ec308c8	0.38092637
175	0xbdb50019	-0.08837909
176	0xc004639a	-2.0685792
177	0x3f091574	0.5354836
178	0x3e746808	0.2386781
179	0x3f45e19e	0.7729739
180	0xc03043ac	-2.7541304
181	0xbe8e52eb	-0.27797636
182	0xbfe88946	-1.8166893
183	0x3c35747f	0.011075138
184	0xbebd6989	-0.3699458
185	0x3ea28ae0	0.31746578
186	0x3ede904a	0.4346946
187	0x3ddf626c	0.10907444
188	0xc026dbc8	-2.6071644
189	0x3eb2a721	0.34893134
190	0xbeaffb43	-0.34371385
191	0x3d830b47	0.06398635

l3.bias f4 [24]
0	0x3f33f8bf	0.7030143
1	0x3e37c897	0.17947613
2	0xbe3d9497	-0.18513714
3	0xbf0628ce	-0.52406013
4	0x3f164bfb	0.58709687
5	0x3f01fdbf	0.5077781
6	0x3e8948e7	0.26813433
7	0xbd1f707a	-0.038925625
8	0x3edfdd97	0.43723747
9	0xbded861a	-0.115978435
10	0xbe0f314a	-0.13983646
11	0xbe9cfc11	-0.3066106
12	0xbf727149	-0.9470411
13	0xbe9ce3c9	-0.30642536
14	0xbf32942c	-0.6975734
15	0xbf0124a3	-0.5044653
16	0xbf2def01	-0.67942816
17	0xbec2053a	-0.37894613
18	0x3f46c600	0.77645874
19	0xbf682f61	-0.90697294
20	0x3e1c7987	0.15280734
21	0x3f15fe19	0.5859085
22	0x3c96b2f0	0.01839587
23	0xbe5bfa1d	-0.2148213
