data.pth (torch, 5418 bytes, 6 tensors)

l1.weight f4 [8, 54]
0	0xbe5f8cc2	-0.21831039
1	0xbea77eb3	-0.3271385
2	0x3e8a7937	0.27045605
3	0x3e57313c	0.21014875
4	0x3d6b9c6b	0.05752222
5	0x3eee15ac	0.4650091
6	0x3eb7f2e1	0.3592749
7	0x3e5e2bcb	0.21696393
8	0x3ee515ef	0.44743297
9	0x3e836db5	0.25669637
10	0xbdb2cc3f	-0.08730363
11	0x3eabcfdb	0.3355702
12	0x3ed0cb46	0.40780085
13	0x3ef01758	0.4689281
14	0xbd895bfb	-0.06706997
15	0x3e13d78c	0.14437693
16	0xbad3279f	-0.001610983
17	0x3e9cb055	0.3060328
18	0x3eac14b3	0.33609542
19	0x3cbf92f9	0.023385512
20	0xbdff4287	-0.12463861
21	0x3d763013	0.06010444
22	0x3d120b7f	0.035655495
23	0x3e9c0d90	0.30479097
24	0x3e83b65c	0.25725067
25	0x3e5e5354	0.21711475
26	0x3e97b638	0.2963121
27	0xbecce413	-0.40017757
28	0x3ea7b85a	0.32757837
29	0xbe84f4c7	-0.25968
30	0x3d5851da	0.052812435
31	0x3f04f1cd	0.5193146
32	0xbdf3c704	-0.119031936
33	0x3e63c02e	0.2224128
34	0xbe375dc3	-0.17906861
35	0x3e62b292	0.22138432
36	0x3e1a0591	0.15041186
37	0x3ef9e405	0.48806778
38	0x3df34abc	0.11879489
39	0x3e26eca0	0.16301203
40	0x3e2003e1	0.1562648
41	0x3e711088	0.23541462
42	0x3e9c2899	0.30499724
43	0xbd8a9a02	-0.06767656
44	0x3f1ccc61	0.6124936
45	0xbdbbff0b	-0.09179505
46	0xbecfc13d	-0.40577117
47	0xbd7e5759	-0.06209502
48	0x3e1f5287	0.15558825
49	0x3eea8896	0.45807332
50	0x3e1e3c84	0.15452772
51	0x3e431a42	0.19052985
52	0x3e876ebb	0.26451668
53	0x3e31b93f	0.17355822
54	0x3ef31858	0.4747951
55	0x3f20ae8c	0.6276634
56	0x3ec5a016	0.38598698
57	0xbe8f2785	-0.27959839
58	0xbde28a8d	-0.11061583
59	0xbee503ad	-0.44729367
60	0x3eadb970	0.3393054
61	0x3eb4de1b	0.35325703
62	0x3eee94b7	0.46597835
63	0x3e9bd6dd	0.30437365
64	0xbe596555	-0.21230061
65	0xbe8fa13a	-0.28052694
66	0x3edcc409	0.43118313
67	0xbe279dd6	-0.16368803
68	0x3ea6e8b1	0.32599404
69	0xbe8b2eda	-0.27184182
70	0xbe7029fb	-0.23453514
71	0xbee4f50f	-0.44718215
72	0xbc09b854	-0.008405764
73	0xbedb67b0	-0.42852545
74	0x3ec8d2e2	0.3922339
75	0xbee4ceed	-0.44689122
76	0xbee4c348	-0.44680238
77	0xbf0499a4	-0.51796937
78	0x3e4a30ca	0.19745174
79	0xbe4792b5	-0.19489558
80	0x3d6076ba	0.054800726
81	0x3f0e8c8f	0.55683225
82	0x3ce903f3	0.028444266
83	0x3eba88f0	0.364326
84	0xbeb9914c	-0.36243665
85	0x3cb23643	0.02175439
86	0x3eb4c6f1	0.3530803
87	0x3eeb0d00	0.45908356
88	0x3efcce0f	0.4937596
89	0xbe835b82	-0.25655752
90	0x3e0da29a	0.13831559
91	0x3f10d3cc	0.56573176
92	0x3eada378	0.3391378
93	0x3ed7973e	0.42107576
94	0xbed60622	-0.41801554
95	0x3d49094d	0.049081136
96	0xbde07cb3	-0.109612845
97	0x3ee17ef0	0.44042158
98	0x3ea51935	0.32245794
99	0x3ee94627	0.45561334
100	0x3f5c0877	0.85950416
101	0x3f2152c5	0.6301692
102	0x3d0e9614	0.034811094
103	0x3d19e93a	0.037575938
104	0xbe888a03	-0.26667795
105	0x3d3bb03a	0.04582236
106	0x3eb1fdf2	0.34764057
107	0x3eaaa6da	0.33330423
108	0xbe8666d7	-0.26250336
109	0xbe51ac90	-0.20475984
110	0x3e70ae0a	0.2350389
111	0x3e26e158	0.162969
112	0x3e2a7ef4	0.16649991
113	0xbc7f1359	-0.015568578
114	0x3e4bc897	0.19900738
115	0x3e58191c	0.21103328
116	0x3e3cfb47	0.1845523
117	0x3e36ee3d	0.17864318
118	0x3e16eb1b	0.14738123
119	0x3ec0e01c	0.37670982
120	0x3f072262	0.5278684
121	0x3ed726cb	0.42021784
122	0x3bdb5b8d	0.0066942633
123	0x3ed65bcc	0.4186691
124	0x3e5f1b04	0.2178765
125	0x3e60f7b9	0.21969499
126	0x3ecdd2d4	0.40199912
127	0x3d8c2158	0.06842297
128	0xbe4e313d	-0.2013597
129	0x3e57fc3d	0.21092315
130	0x3e05e182	0.13074306
131	0x3e539477	0.20662104
132	0x3e7fc24b	0.2497646
133	0x3df88647	0.12134986
134	0x3ee07b03	0.4384385
135	0xbea59671	-0.3234134
136	0x3e81b32d	0.25332013
137	0xbeb923be	-0.36160082
138	0x3da74396	0.08167188
139	0x3ed6ce6c	0.41954362
140	0xbcde7da1	-0.027159514
141	0x3e7dd069	0.24786533
142	0xbe35e9dd	-0.17764993
143	0x3ebdfb02	0.37105566
144	0x3e9dac9b	0.3079575
145	0x3ebf62d4	0.37380087
146	0x3e240157	0.16016136
147	0x3e984487	0.29739782
148	0x3e1fcaca	0.15604702
149	0x3ee1d65f	0.44108865
150	0x3e86d9f4	0.2633816
151	0xbe1cb83e	-0.15304658
152	0x3ebeb70f	0.37249038
153	0xbe5f2529	-0.21791519
154	0xbf0a9f69	-0.5414949
155	0xbd7e60ae	-0.06210392
156	0x3e2cb307	0.16865169
157	0x3eaa19c9	0.33222798
158	0x3e885625	0.26628223
159	0x3edd4aad	0.43221036
160	0x3e3e5f69	0.18591084
161	0x3e545b49	0.20737948
162	0x3f186fe9	0.5954576
163	0x3eb2e7f3	0.34942588
164	0xbe9acbae	-0.3023352
165	0x3ee75d8c	0.45188558
166	0x3d1ebc52	0.038753815
167	0x3f3541f4	0.7080376
168	0xbdd73f17	-0.1051008
169	0xbe781cdf	-0.24229763
170	0xbef893f4	-0.4855038
171	0xbdcdbc25	-0.10045651
172	0x3e32f2c1	0.17475416
173	0xbe778198	-0.2417053
174	0xbe952f53	-0.29137668
175	0xbe9ebda8	-0.3100407
176	0x3e57df83	0.21081357
177	0xbe04a14b	-0.12952153
178	0x3e8a6664	0.27031243
179	0x3f2e7d62	0.6816007
180	0x3b0b2314	0.0021230625
181	0x3ed0d903	0.40790567
182	0x3ef1521c	0.47132957
183	0x3f087819	0.53308254
184	0x3ee959d1	0.45576337
185	0x3eab06b4	0.33403552
186	0xbcf16360	-0.029466331
187	0x3edc78fa	0.43061048
188	0xbed8aeca	-0.42320853
189	0x3e5e1874	0.21689016
190	0xbe45b007	-0.1930543
191	0x3e9fbd6f	0.31199214
192	0x3ec60d5c	0.38682067
193	0xbe965ac3	-0.2936612
194	0x3f0124e9	0.50446945
195	0xbe1236fe	-0.1427879
196	0x3e900233	0.28126678
197	0xbe382058	-0.17981088
198	0xbeb41df9	-0.35179117
199	0xbec6900a	-0.38781768
200	0xbe799ac1	-0.2437544
201	0xbdaa96e6	-0.08329563
202	0x3ec11e80	0.37718582
203	0xbebdee41	-0.37095836
204	0xbe146929	-0.1449324
205	0x3e1d3c1e	0.15354964
206	0xbee125f1	-0.4397426
207	0x3e4a7ba2	0.19773725
208	0x3f4aafb8	0.79174376
209	0x3f020a30	0.50796795
210	0x3e898146	0.2685644
211	0xbe9401b9	-0.28907564
212	0xbc658bc5	-0.014010374
213	0xbe387380	-0.1801281
214	0xbdbb9176	-0.09158604
215	0x3eba205f	0.36352822
216	0xbe600539	-0.21876992
217	0x3e7ec502	0.2487984
218	0xbde74587	-0.11292558
219	0x3ce2efda	0.02770226
220	0x3d412a78	0.047159642
221	0xbeb80d27	-0.35947534
222	0xbddbe024	-0.10736111
223	0xbe4a9b3d	-0.19785781
224	0xbe87e646	-0.26542872
225	0xbdb593a3	-0.0886605
226	0x3e8c6d43	0.2742711
227	0x3c8fab15	0.017537633
228	0x3effeecd	0.49986878
229	0x3e34e96a	0.17667165
230	0x3de13977	0.10997289
231	0x3d2a3883	0.0415578
232	0x3dc581a9	0.09643871
233	0xbeb838d3	-0.35980853
234	0x3f05bfdf	0.522459
235	0x3eced175	0.40394178
236	0x3bbd5c78	0.0057788454
237	0x3ef71634	0.48259127
238	0x3ede0593	0.43363628
239	0xbd7a9390	-0.061175883
240	0xbc6eefe2	-0.01458356
241	0xbb89f749	-0.004210387
242	0x3eeefecc	0.4667877
243	0x3e7bb2ed	0.24579974
244	0x3eabbb4c	0.33541334
245	0xbd8cb52a	-0.06870492
246	0xbe9fead8	-0.3123386
247	0xbc29bc14	-0.010359783
248	0xbd8b7dec	-0.06811127
249	0xbe871ce5	-0.26389232
250	0x3eb31067	0.34973451
251	0x3c52a883	0.012857559
252	0x3eeaece9	0.45883873
253	0xbeb2b43d	-0.34903136
254	0xbe0b482a	-0.13601747
255	0x3bf9f6ed	0.007628313

l1.bias f4 [8]
0	0x3ecfa45a	0.40555078
1	0x3ee4dd8f	0.44700286
2	0x3f0a9738	0.5413699
3	0x3f62c03f	0.88574594
4	0x3eb80b21	0.3594599
5	0x3f406731	0.7515746
6	0x3e8f1506	0.27945727
7	0x3f022867	0.508429

l2.weight f4 [8, 8]
0	0x3f706278	0.9390025
1	0xbf9f467f	-1.2443389
2	0x3f3a24b7	0.7271227
3	0x3eca37f6	0.3949582
4	0x3e438d81	0.19096948
5	0x3f445d79	0.7670513
6	0xbe7f0f54	-0.24908191
7	0x3f37d226	0.71805036
8	0x3da4edf5	0.08053199
9	0xbf12188f	-0.57068723
10	0x3e731f87	0.23742495
11	0x3f887762	1.0661433
12	0xbf30d905	-0.69081146
13	0x3f411fd4	0.7543919
14	0xbf204081	-0.62598425
15	0x3edcf508	0.43155694
16	0xbea83ce5	-0.3285896
17	0x3f6454bf	0.8919181
18	0xbecbfbb4	-0.39840472
19	0x3eb1cffc	0.34728992
20	0xbf03d47a	-0.5149609
21	0x3e6ea2c3	0.23304276
22	0x3f3d9c92	0.7406703
23	0xbecafa85	-0.39644256
24	0xbf0b41aa	-0.5439707
25	0x3ee34624	0.4438945
26	0xbed8180b	-0.42205843
27	0x3facab4d	1.3489777
28	0x3db25e66	0.08709411
29	0x3f7ae1ed	0.98000985
30	0xbe80ef7d	-0.25182715
31	0xbeb5d95d	-0.35517398
32	0x3e4d7af6	0.20066437
33	0x3f66a59d	0.90096456
34	0x3e775413	0.24153166
35	0x3f3b6b9f	0.7321109
36	0xbf939424	-1.1529584
37	0xbf1fe218	-0.62454367
38	0xbdeab022	-0.11459376
39	0x3f875d99	1.0575439
40	0xbdb3bd8b	-0.08776387
41	0x3fa614bc	1.2975078
42	0xbc8f4121	-0.01748711
43	0x3e89676e	0.26836723
44	0x3f140956	0.57826746
45	0x3d07e1dc	0.03317438
46	0x3f060aa3	0.5235998
47	0xbccf2bc6	-0.025289427
48	0xbc27ed34	-0.010249425
49	0xbe6a569b	-0.228846
50	0x3eb8bf74	0.36083567
51	0x3e981530	0.29703665
52	0x3f79fc1d	0.9765032
53	0x3f9916e7	1.1960114
54	0x3eb9f541	0.36319926
55	0xbf6c9eda	-0.9242989
56	0x3f5de127	0.8667168
57	0x3f77a09b	0.9672944
58	0x3f467657	0.7752432
59	0xbf9b081f	-1.2111853
60	0x3ec1e17a	0.37867337
61	0x3ec81bde	0.3908376
62	0x3f6a1c3e	0.91449344
63	0x3f418d39	0.75606114

l2.bias f4 [8]
0	0x3f1129dc	0.567045
1	0x3f4bfd82	0.796837
2	0x3ea6c29f	0.3257036
3	0x3f2a164f	0.6644029
4	0x3f03215c	0.5122278
5	0xbea5b8c3	-0.32367525
6	0x3cecc8e4	0.028904386
7	0xbe5532f7	-0.20820223

l3.weight f4 [7, 8]
0	0x3f5191a5	0.8186286
1	0x3e1f717e	0.15570638
2	0xbf1dcbf4	-0.6163933
3	0xbf953761	-1.1657525
4	0xbf78cf17	-0.97190994
5	0xbfa7fdbd	-1.312431
6	0xbf61c5cc	-0.8819244
7	0x3ea01ca3	0.31271848
8	0xbf898983	-1.074509
9	0xbee4d883	-0.44696435
10	0x3f457550	0.7713213
11	0x3e85e528	0.26151395
12	0xbf9c86fd	-1.2228695
13	0x3e12b925	0.1432844
14	0x3e56f293	0.20990972
15	0xbe3cafed	-0.18426485
16	0x3ee3fd00	0.4452896
17	0x3f1fd63e	0.6243628
18	0xbfbc9e8e	-1.4735887
19	0x3e54d00f	0.20782493
20	0x3efbb3bb	0.4916056
21	0xbfa0f653	-1.2575172
22	0xbfde22a7	-1.7354325
23	0xbf88545b	-1.0650743
24	0x3e921ad3	0.2853609
25	0x3ec1ef6d	0.3787798
26	0xbedacf81	-0.42736438
27	0x3ee041af	0.43800113
28	0xbfcaca33	-1.5842956
29	0xbf820fd1	-1.0161077
30	0x3f4a8357	0.7910666
31	0xbf6df052	-0.92944825
32	0xbe22e6b4	-0.15908319
33	0xbf8793da	-1.0591996
34	0xbf7d74df	-0.99006456
35	0xbf19fd78	-0.6015239
36	0xbfbd12b2	-1.477133
37	0x3ea7e395	0.3279082
38	0x3f4112d6	0.75419366
39	0x3e83483c	0.25641048
40	0xbed49c71	-0.41525605
41	0xbf824945	-1.017861
42	0x3f13ded8	0.5776191
43	0xbf806adb	-1.003261
44	0x3e5b187d	0.2139606
45	0x3db7763b	0.089580975
46	0xbf56429b	-0.8369538
47	0x3f13c6f9	0.57725483
48	0xbfb1159d	-1.3834721
49	0x3e05aae8	0.13053477
50	0x3ea83b13	0.3285757
51	0x3eef4eeb	0.46739897
52	0x3f1d841b	0.615297
53	0x3e9a09f3	0.30085716
54	0xbf9d3477	-1.2281636
55	0xbf811072	-1.0083144

l3.bias f4 [7]
0	0xbe9049cd	-0.28181306
1	0xbdef9a95	-0.11699406
2	0x3e629030	0.22125316
3	0x3e74dded	0.23912783
4	0xbe45f223	-0.19330649
5	0x3de7e5aa	0.11323102
6	0x3e007c5c	0.1254744
