crisis/registrar/data.pth (torch, 5930 bytes, 6 tensors)

l1.weight f4 [8, 44]
000000 db c8 5c 3f 15 b0 d1 3e a3 74 90 3e 06 4c a7 3d
       0.8624398 0.40954652 0.28213987 0.08168797
000010 42 14 5b 3e f6 a1 39 bf 94 00 2a 3e eb 47 a7 3e
       0.21394446 -0.7251276 0.16601783 0.32672057
000020 57 ad b5 3d 61 66 61 3f 30 c2 8b be dc 6b 6d 3f
       0.088709526 0.8804684 -0.2729659 0.92742705
000030 4a aa a2 3f 99 4c 5e 3f e0 fe 03 40 b1 3a d2 3b
       1.2708218 0.8683563 2.0624313 0.006415688
000040 d9 a0 2f bf f2 69 5f 3e 11 27 5d bd 79 78 f0 3e
       -0.6860481 0.21817759 -0.053992335 0.46966913
000050 63 b2 c9 bc ae 64 41 be b2 17 cb 3e 4d 7c d3 bf
       -0.024621194 -0.18886063 0.39666516 -1.6522309
000060 05 b0 a9 3e b6 4f d3 3f 8f 6f d9 be fb f2 05 3f
       0.33142105 1.6508701 -0.42467925 0.52323884
000070 72 ba 83 3e 51 d8 23 3e 87 bb 8b 3e 9d ac a5 be
       0.25728184 0.16000487 0.2729151 -0.32358256
000080 d3 8b 7c 3e c9 ad ba 3f 3b 99 ec 3e 54 53 a2 bd
       0.24662714 1.4584285 0.46210656 -0.0792605
000090 d2 26 98 bc cc 5c 6f bf 4f b6 9b bf f5 38 13 3f
       -0.018573198 -0.9350097 -1.2165011 0.57508785
0000a0 c6 30 4a bf 4a 81 81 3e 8a 4c 9b bf 83 39 a6 3e
       -0.7898067 0.25293952 -1.2132733 0.32465753
0000b0 6e c1 04 bf 2f 8a 49 be 73 ae 2b bf ef 06 80 bd
       -0.5185765 -0.19681619 -0.67063063 -0.062513225
0000c0 3d c6 96 3f 4a c9 07 be d7 52 2e 3f 31 25 9e 3f
       1.1779248 -0.1326038 0.68095154 1.23551
0000d0 d7 da 4c 3e c2 c6 1c 3f 4c b6 1f 3f a1 28 cc 3f
       0.20005356 0.6124078 0.6238754 1.5949899
0000e0 dd 5e cd bf 82 39 34 3f b0 da 68 3f f2 df d6 3c
       -1.6044575 0.7040025 0.9095869 0.026229832
0000f0 d4 9a f3 bd a8 11 48 3f b9 6e a4 3d 30 3f 80 be
       -0.118947655 0.7815194 0.08028931 -0.25048208
000100 bd 39 e8 3d 16 5c 44 3e f9 07 9a 3f 18 0d 59 be
       0.11339138 0.19175753 1.2033683 -0.21196401
000110 49 5f a9 3e 65 21 78 3f ee e8 05 bd c0 11 9c bd
       0.3308051 0.96925956 -0.032692842 -0.07620573
000120 e5 dd b1 bd 3f 72 3a 3f 4c ea 42 3f 11 fa bb bd
       -0.08684901 0.72830576 0.7613876 -0.09178556
000130 e4 3d 95 bc 05 cb 8f bf 74 ad bc be 69 94 d5 3d
       -0.018217988 -1.1233832 -0.36851084 0.104286976
000140 7b 5f 12 3f 55 7f 7b bf 33 0d cc 3f 33 e3 de be
       0.5717694 -0.9824117 1.5941528 -0.43532714
000150 49 7f 39 3f cd 5a 3a 3f 4a 37 b3 3f e1 9d e8 bd
       0.72459847 0.727948 1.4001248 -0.11358238
000160 34 83 bc be 1f d5 2e 3f d2 b2 43 3f 1a a2 05 bf
       -0.3681885 0.68293947 0.76444733 -0.5220047
000170 f0 2c b3 be 8a d3 8d bd e2 82 12 3f f4 a8 a9 be
       -0.34995222 -0.069251135 0.5723096 -0.33136714
000180 14 6c 94 be 42 5a b0 3f 92 62 7d 3f d8 99 e3 3f
       -0.28988707 1.3777544 0.9897853 1.7781324
000190 10 8f 3c 3f eb 40 a9 3f 35 51 43 3d 08 02 ea be
       0.73655796 1.3222936 0.047684867 -0.45704675
0001a0 91 9e db bd f2 2a 29 3e 60 39 3f bf d9 f1 7c be
       -0.107236035 0.16520289 -0.7469692 -0.24701633
0001b0 c3 35 3f bf 7a 36 3f bf 68 4b 2e 3d c3 e4 67 bf
       -0.7469141 -0.746925 0.04255238 -0.9058344
0001c0 fa 37 47 3e bc 94 3f bf 4c bf d5 3d 82 b2 99 be
       0.19454947 -0.74836326 0.104368776 -0.30019003
0001d0 a2 2b 92 3e 61 79 b6 3d 65 cd 00 3f 92 cf c7 bc
       0.28548914 0.0890987 0.5031341 -0.02439097
0001e0 ac c2 e0 3e 28 c3 3f bf f7 2a 07 be 22 1d c8 be
       0.43898523 -0.7490716 -0.13199984 -0.39084727
0001f0 11 3a e8 3e 70 5a 5c 3f 71 46 db 3f e6 dd a1 3f
       0.453568 0.86075497 1.7130872 1.2645843
000200 ad c7 73 bf 2e 34 03 3f 74 02 03 40 c5 b3 b8 3e
       -0.95226556 0.51251495 2.0470247 0.36074653
000210 96 38 3c be f6 b3 b7 be 3f 85 81 be 39 14 13 3f
       -0.18380961 -0.35879487 -0.2529697 0.5745273
000220 f2 26 b2 3f 67 6f 0e 3f a4 0e 68 3f f7 f9 45 3e
       1.3918135 0.55638736 0.9064734 0.19333635
000230 27 a5 03 3f 06 b3 a8 3d 0b 41 b2 3f 03 92 42 bf
       0.5142388 0.08237271 1.39261 -0.76004046
000240 7f a5 be 3f 83 8d 9b 3d 76 6c ba 3e 02 96 11 3f
       1.4894255 0.075953506 0.36410874 0.5686952
000250 ab 81 16 3f 14 7b 5e 3e 6b 85 64 3f fa 61 bc bd
       0.5879161 0.21726638 0.8926608 -0.09198375
000260 fa ac 74 3f cc a4 7c 3f 69 d6 1c 3e 65 5a a4 3f
       0.9557644 0.9868896 0.15316166 1.2840086
000270 9f ab 47 3e 9c 3a a8 bf 8d b5 30 bd b4 e9 a8 3d
       0.19499062 -1.3142886 -0.04314189 0.082477
000280 16 93 5d bd ea 09 55 3e b4 20 2c 3e 73 0c 0b 3d
       -0.05409535 0.20804563 0.1680935 0.03394742
000290 7c e3 3f be 15 6d 21 bf e2 35 4b be 02 f9 19 3f
       -0.18739122 -0.6305707 -0.19844773 0.6014558
0002a0 d2 ce 07 3f 85 56 85 bf 82 8f 96 bf 77 31 55 bf
       0.5304996 -1.0417029 -1.1762545 -0.832786
0002b0 89 fb 60 bf f9 dc 8b 3e b8 40 8c bd 1f bf 95 3e
       -0.8788381 0.27317026 -0.068482816 0.29247376
0002c0 5a a3 1b 3f 2e dc 18 bf cd fb 5c bf f4 3d 06 3f
       0.6079613 -0.5971097 -0.8632172 0.5243828
0002d0 01 79 e0 be 32 a6 86 3f 2e 8e 98 3e a7 89 9b 3f
       -0.4384232 1.0519469 0.29795974 1.2151383
0002e0 20 46 23 3f e2 73 a5 be 6b 68 35 bf dd 16 82 bf
       0.6377888 -0.32314974 -0.70862454 -1.0163227
0002f0 20 ea 1a bf 33 4f b0 be 5c e8 0d bf 61 8b cb 3e
       -0.60513496 -0.34435424 -0.5543268 0.39754775
000300 4d 2e 85 3f f5 65 29 3f f5 ee 40 3f af cf 15 3e
       1.0404755 0.661712 0.7536462 0.14630006
000310 75 fa 4a 3f f0 ed 18 3f c8 81 52 3f ff 46 b9 3f
       0.7928842 0.59738064 0.8222928 1.4474791
000320 e3 dd 67 3e 5e 2b 55 3f b4 5c 74 3f 97 71 e0 3e
       0.22643237 0.832693 0.95453954 0.43836662
000330 e6 a3 c2 be bb b2 24 3f 07 ff 88 3e 56 17 4d 3f
       -0.3801567 0.6433522 0.2675707 0.8011373
000340 83 2f 54 be d1 97 fa 3e ba 30 9a 3d 98 cd 0b 3f
       -0.2072125 0.48943952 0.07528825 0.54610586
000350 69 da 7f 3e 17 58 a6 3f e8 01 71 3f 83 0b 8a bf
       0.2498566 1.2995633 0.94143534 -1.0784763
000360 c9 ab 4e 3f d9 3c e0 3d 3f 14 01 bf a1 30 35 3e
       0.80730873 0.10949106 -0.5042152 0.17694332
000370 2c f5 01 3e c1 fb 92 3f af aa 26 3f 44 61 de be
       0.12691182 1.1483079 0.6510419 -0.43433583
000380 26 af 87 be f5 a0 15 3f 9b b0 18 be ef ca 3a be
       -0.26500815 0.58448726 -0.1491112 -0.18241476
000390 f4 60 d3 be 80 b0 c0 3f 7b 6d 82 bf d0 c1 4c bf
       -0.41284907 1.5053864 -1.0189661 -0.79983234
0003a0 7f e7 8b 3f 8f 2d cb 3f ac a8 46 bf b0 e1 d7 be
       1.0930022 1.5873278 -0.7760112 -0.42164373
0003b0 59 27 19 3f f9 ea 24 3d 5d a5 55 bf c2 b7 de 3e
       0.59825665 0.04026315 -0.8345545 0.4349957
0003c0 1a a8 55 bf 0a 9b 55 bf fa 43 9b bd b6 25 36 be
       -0.8345963 -0.83439696 -0.07581325 -0.17787823
0003d0 a3 5b b5 3e a3 b0 8e 3f 95 01 e2 3e 21 d0 29 bd
       0.35421476 1.1147655 0.44141832 -0.041458253
0003e0 f0 6e 26 3f ec 53 35 bd 9e ee 17 3e a3 5f d1 3e
       0.6501303 -0.044269487 0.14837119 0.40893278
0003f0 98 3e 1f 3f 97 3f 24 3f 86 80 b4 3e ab 5a 07 bf
       0.62204885 0.6415953 0.35254306 -0.52872723

l1.bias f4 [8]
000000 b2 43 89 3f 9b ca ab 3f 12 2c 3f 3f fa 03 74 3f
       1.0723784 1.3421205 0.7467662 0.9531857
000010 ec 71 ab 3f 44 9e 55 3f 6f 16 26 3f e6 9a 34 3f
       1.3394141 0.8344462 0.6487798 0.70548856

l2.weight f4 [8, 8]
000000 4d ec e6 3e c0 c9 b8 3f 2c 63 c7 be cf d4 87 be
       0.45102158 1.4436569 -0.3894285 -0.26529548
000010 7f f2 39 3f df 60 e2 bf a7 21 cc be 07 6c 02 be
       0.72635645 -1.7685813 -0.39869425 -0.12736522
000020 1c de 09 40 ec 0b 6e 3e 39 3c df 3f 63 a1 e1 3e
       2.1541815 0.23246735 1.7440253 0.4406844
000030 8f ec c8 bf 23 0f ca 3f a7 81 bd 3f 34 0a fb 3e
       -1.5697192 1.5785869 1.4805192 0.49031222
000040 66 80 77 bf d5 07 d8 3f a9 bf b7 3f 3b 4b d6 bf
       -0.96680295 1.687739 1.4355365 -1.6741709
000050 22 62 22 3e a4 e9 bd 3f 95 c2 0b 40 5f dd f1 3f
       0.15857747 1.4836926 2.1837513 1.8895682
000060 89 09 e0 3f 75 ce 92 3f e2 27 95 bf dc cd c9 3f
       1.750291 1.1469256 -1.1652796 1.5765948
000070 06 d3 e8 3e 14 af af be de fc a0 bf 07 1c 9f 3f
       0.45473498 -0.34313262 -1.2577169 1.2430428
000080 a5 bb 06 40 ef 6f 86 3f ec d2 ca 3f 37 50 47 3f
       2.105203 1.050291 1.5845618 0.77856773
000090 02 b1 04 bf e9 1e 4b bf c6 eb be be ca 8d 9d bf
       -0.5183259 -0.7934404 -0.37289256 -1.2308896
0000a0 d3 e2 4f bf c1 41 03 bd 8d 7a 99 be 43 82 ed 3f
       -0.8120548 -0.03204513 -0.2997631 1.8555378
0000b0 65 a7 d0 3f 23 7e ac 3e 92 3a e3 bd 1b aa aa 3f
       1.6301085 0.33689985 -0.11095156 1.3333162
0000c0 75 04 4f 3f e2 34 64 3e 69 0d 33 bf e4 6f 56 bf
       0.80866176 0.22285798 -0.6994234 -0.8376448
0000d0 0a 0a 08 40 91 08 8f 3f ea 9a 73 3f 05 b9 d4 bf
       2.1256127 1.1174489 0.95158255 -1.6618963
0000e0 9a a6 66 bf 59 5b b3 3f 19 a7 14 3f 2a 1b da 3f
       -0.90097964 1.4012252 0.5806747 1.703954
0000f0 d5 c0 a0 3f f1 23 81 bf f5 0a d7 be 28 94 a0 be
       1.2558848 -1.0089093 -0.42000547 -0.31363034

l2.bias f4 [8]
000000 63 86 e6 bd ff 5e b3 3e 03 d9 12 3e 4d bc 35 3f
       -0.11256101 0.35033414 0.14340596 0.7099045
000010 52 2c 64 3f 5e 8c 43 3e 2f 2f 82 3f f1 a4 30 3f
       0.8913013 0.19096515 1.0170649 0.6900168

l3.weight f4 [24, 8]
000000 94 71 16 c0 2a 94 05 3e ec 39 f9 3d 70 d9 f7 3e
       -2.3506823 0.13044801 0.12169251 0.4840808
000010 0b e8 b5 be d2 82 0e be 02 ed 26 c0 63 85 c4 be
       -0.35528597 -0.13917091 -2.6082158 -0.38383016
000020 02 9f a7 3e 2d 16 64 bf a3 69 ce be 8a f4 22 3f
       0.327385 -0.8909634 -0.4031497 0.63654387
000030 21 92 e5 be e7 1a 1e b9 3e 90 03 c0 3b 85 e6 3e
       -0.4483805 -0.00015078076 -2.0556788 0.45023522
000040 e2 4d e1 bf 78 50 c0 3e 97 10 fa 3e 0b dc 80 be
       -1.7601893 0.37561393 0.48840782 -0.2516788
000050 7b ec e3 3e 0b bf 13 c0 3d b5 f7 bf 4d c7 6b bf
       0.44516358 -2.3085353 -1.9352185 -0.92100984
000060 0d fd 21 3f 00 62 68 be de 65 05 be db 0b a4 3c
       0.6327675 -0.22693634 -0.1302714 0.020025184
000070 c8 60 d5 3e b1 39 84 bf 6d f4 6c bf 0c 2d 23 be
       0.416754 -1.0330106 -0.92560464 -0.15935153
000080 41 82 c4 bf 78 a7 57 3f fa 19 c2 be eb bf a9 be
       -1.535225 0.8423991 -0.37910444 -0.33154234
000090 df 7d 2e 3e 6b e7 d8 3b 1a ff d4 bf ff 6c 1e c0
       0.17040204 0.006619384 -1.6640351 -2.4754026
0000a0 88 ec f3 bf 44 f7 db 3e 42 e6 d5 bf c5 15 86 3e
       -1.9056559 0.42962086 -1.6710894 0.26188484
0000b0 52 dd 8f 3e 78 8a d5 3e 57 e8 36 bf 80 a3 68 be
       0.28098541 0.41707206 -0.7144827 -0.2271862
0000c0 b2 b2 4e bf 8a 6c b8 3e a0 ac 06 bf cf 62 f4 3b
       -0.8074142 0.3602031 -0.52607155 0.007458068
0000d0 f7 d9 2f 3f ca be 10 c0 b2 0f 91 be c2 9c dd be
       0.6869196 -2.2616448 -0.28332287 -0.4328366
0000e0 c0 b9 7b 3f d5 a2 a8 be 76 3b dc bf 9a 97 e0 3e
       0.98330307 -0.3293673 -1.7205646 0.43865663
0000f0 83 1b f0 3e 8d b9 7f bf 65 0e 1c bd 41 df 3a bd
       0.4689599 -0.99892503 -0.038099665 -0.045623068
000100 d8 9c ad bf f7 88 ab bf b4 e6 4e bf 3d 5a a2 be
       -1.356349 -1.3401173 -0.80820775 -0.3170947
000110 74 fe 34 be 59 6e 02 3e 97 55 70 3f 4c 9b 49 3f
       -0.17675191 0.12737407 0.938806 0.7875259
000120 63 cc 9c 3e 5b 2a dc bf 23 3a 31 c0 e8 c2 2a 3f
       0.30624685 -1.7200426 -2.7691734 0.66703653
000130 57 0c 0f 3d a4 22 03 3f f7 66 ee bb 87 e6 ec 3e
       0.034923878 0.5122473 -0.007275458 0.46269628
000140 cb 77 15 c0 06 d4 0e bf 1b 2d 56 3e 06 cf e6 bc
       -2.3354366 -0.5579227 0.20915644 -0.028174888
000150 5c 4e ed bf 31 84 88 3f 5d ad e9 bf 44 8c 1d 3e
       -1.8539538 1.0665342 -1.8256031 0.15385538
000160 15 d4 8f be 33 c8 06 c0 72 6c d3 be 68 56 ef 3e
       -0.28091493 -2.1059692 -0.41293675 0.4674561
000170 1d 1a f1 bf 6d da 3a 3f fa 29 95 bf 13 d6 1f 3f
       -1.8836094 0.7298954 -1.1653435 0.62436026
000180 fb 8d 0e 3c b0 75 38 3e d8 d8 f4 bf 30 a2 02 be
       0.008700843 0.18013644 -1.9128675 -0.12757182
000190 b5 1c 28 3f 01 b7 2f be b5 71 12 c0 0a 2f 46 3f
       0.65668803 -0.17159654 -2.2881901 0.77415526
0001a0 31 d9 09 c0 1e 50 9a 3e 8c 51 8d bb 74 c9 0d bf
       -2.1538813 0.3013925 -0.0043126997 -0.5538552
0001b0 9c 6a c3 3d a8 37 f0 bf 7c c4 2b 3f 66 d5 d7 bf
       0.095418185 -1.8766985 0.67096686 -1.6861999
0001c0 97 c9 ca 3e c4 17 d7 be 9a 45 b3 be b4 fd 9f 3c
       0.39606926 -0.4201032 -0.3501404 0.019530155
0001d0 a3 4a 8d bd 55 d6 a2 bf ff f7 56 3f dd b4 1d bf
       -0.068990014 -1.2721659 0.8397216 -0.616041
0001e0 95 e2 02 bf d7 fa a5 3d f9 6a 12 c0 56 c1 e5 3e
       -0.51126987 0.081044845 -2.287779 0.44874066
0001f0 04 a5 6b 3e 2e c1 40 bf b6 3d 9a 3f 9c d1 b1 bf
       0.23012167 -0.7529477 1.2050083 -1.3892093
000200 f9 f7 9e bf 8c d8 bb 3e 0c 42 fb 3e ff b8 2b c0
       -1.2419425 0.3668865 0.49073827 -2.6831663
000210 b8 f6 95 bf 50 3e 68 bf 32 6c 28 3f 0e ea 02 c0
       -1.1715918 -0.9072008 0.6579009 -2.0455356
000220 91 d8 85 bf de ba db be b2 02 ba 3e 66 b1 12 c0
       -1.0456716 -0.42916006 0.3633018 -2.2920775
000230 6f 36 90 bf 88 fb 31 be 3e 47 2d 3f 6f 47 1d 3e
       -1.1266612 -0.17381108 0.6768683 0.15359281
000240 97 a4 a6 bf 92 a5 47 3f e4 1d d7 3e 94 5d 23 c0
       -1.3018979 0.77987015 0.42014992 -2.5525866
000250 f7 f4 b1 3d 86 43 31 c0 56 fa e9 be 3d fd c8 bf
       0.086893015 -2.7697463 -0.45698804 -1.5702282
000260 f7 60 40 3f 2f 5e 5e bf e3 c6 b7 3d 9d 8d aa bf
       0.75147957 -0.8686246 0.089734815 -1.3324467
000270 05 02 0b be 62 8d 75 bf 51 4c 55 3e 8f 2f 1a 3f
       -0.13574989 -0.9591886 0.20829894 0.6022882
000280 cb c9 17 c0 7c 3a a3 bd 6d 68 43 3f fe 60 9a be
       -2.3716915 -0.079701394 0.76331216 -0.30152124
000290 62 86 f3 bf 66 4d ab bd 36 03 fc be 6a d9 a3 bf
       -1.9025385 -0.08364372 -0.492212 -1.2800725
0002a0 37 20 55 3e 38 a2 8e bf 5d 4d ed 3e 6e d2 8b 3e
       0.2081307 -1.1143255 0.46348086 0.27308983
0002b0 fb 4c fc bf 93 9a a5 be f8 04 0a 3e e7 11 99 be
       -1.9710993 -0.32344493 0.13478458 -0.2989647
0002c0 d8 20 38 c0 cd 8d 04 3f 79 2b 36 3f 98 06 e3 bf
       -2.8770046 0.5177887 0.71160084 -1.7736387
0002d0 ed de 0b bf 9b ca ba be 6b 5f 06 c0 69 0a 17 bf
       -0.5463703 -0.364827 -2.0995739 -0.5900026
0002e0 f5 9e 42 bf 9f 1a 75 be bc 3e 03 3f a4 8c 0e bf
       -0.760238 -0.23935936 0.512676 -0.5568335
0002f0 24 eb d9 be 36 29 9a be c3 72 77 bf a3 3d 3f 3e
       -0.4256221 -0.30109566 -0.9665949 0.18675856

l3.bias f4 [24]
000000 74 63 16 bd fe 59 5b be 76 dc 82 be 85 1d 33 be
       -0.03671594 -0.21421048 -0.25558823 -0.1749173
000010 7b b6 93 3e fe 4f 48 3b 07 78 3a be 1a a9 83 be
       0.2885016 0.0030565257 -0.1820985 -0.25714952
000020 1e 64 c5 3e 28 ed bb 3e 53 c8 63 3e 3e 7a 1e 3e
       0.38552946 0.36704373 0.22244386 0.15476319
000030 7c 88 6d be a6 48 08 bd 99 ea f6 bd 94 a9 0c 3e
       -0.23196596 -0.033272408 -0.12056465 0.13736564
000040 28 4c 66 be 75 fa 25 3e 69 ec 8a bd 83 2d f2 bd
       -0.22489989 0.16208823 -0.06783373 -0.11825087
000050 b8 ff b8 3e 74 0f e9 bd cb 4e 80 be a3 7c 9e 3d
       0.36132598 -0.113799006 -0.25060114 0.07738616
